v28_checkpoint.pth (torch_old, 28933 bytes, 7 tensors)

fc1.weight f4 [64, 37]
000000 87 4a bf bd a9 1d 1e 3e f6 75 9f bd 55 aa 1a be
       -0.09340387 0.15441002 -0.07786171 -0.15104039
000010 89 f6 88 3d 21 eb 2e bd c0 20 43 be 9c 4e c5 3e
       0.06687648 -0.042704705 -0.19055462 0.38536537
000020 6e e6 0a 3e a2 c0 34 bd 07 f5 55 bd fe a0 df 3d
       0.13564464 -0.04412902 -0.05223563 0.10919379
000030 26 06 28 be fa 4c 1f be 7a c7 f4 bd 92 7d ec 3d
       -0.16408595 -0.15556708 -0.1195211 0.11547388
000040 1a dc 97 3b d0 ef c3 3b 32 95 11 bd 1c d9 27 be
       0.0046343924 0.0059795156 -0.035542674 -0.16391414
000050 a4 89 3a 3e 51 91 c7 3b 48 6f 31 3e 19 5b a4 3c
       0.18216568 0.006090321 0.17327607 0.02006297
000060 e8 57 9f be c6 41 e7 bc 17 90 4d 3e 53 4b 47 be
       -0.31121755 -0.028229605 0.20074497 -0.19462328
000070 db 5a 0d 3d f1 43 52 be f0 f3 00 b8 a2 91 89 3d
       0.034510475 -0.2053373 -3.0744763e-05 0.067172304
000080 30 f6 bd bd 97 b4 f4 bc d0 36 ee bd fa ba 94 3d
       -0.09275472 -0.029871268 -0.116315484 0.072622254
000090 b9 e2 17 bd 8a cc 47 3e aa 08 36 bd 27 35 63 3c
       -0.037081454 0.19511619 -0.044441856 0.013867653
0000a0 7a 38 f8 3d 0d 18 1a bd 59 25 8b 3d 34 cb 86 be
       0.12120147 -0.037620593 0.06794233 -0.26326907
0000b0 6c 77 90 bd 3d 54 1c be ac 49 78 bd e7 93 5e 3d
       -0.07054028 -0.1526651 -0.060617134 0.05434027
0000c0 31 16 ec bc fd 79 ed bb 68 ec cb 3d 0d 32 4a bd
       -0.028819175 -0.007247208 0.099572 -0.04936414
0000d0 2e 21 59 3d dd 90 89 3d ff 9a cc 3d 58 38 5f be
       0.05301016 0.067170836 0.09990501 -0.21798837
0000e0 e4 71 36 3e d5 62 da bd ad 15 22 bd 25 ee 9a bd
       0.17816883 -0.10663382 -0.039571453 -0.07564954
0000f0 4c 58 cb bd 5b ed 16 3e e3 ed 12 3d f2 12 be 3d
       -0.09928951 0.14738981 0.035871398 0.09280957
000100 eb af 27 be 7f 1f ed bd da 9a eb be 7e 09 a1 bc
       -0.16375701 -0.11578273 -0.4601658 -0.019657847
000110 88 5f 0f 3e d3 27 c8 3d af 0c 05 3c b0 17 dc bd
       0.14001286 0.09773221 0.0081207 -0.107467055
000120 95 19 86 3d de ec 4f 3d 29 4d 67 3c ea 0d b5 3d
       0.06547848 0.050763004 0.0141175175 0.088405445
000130 de 87 76 3e 6c 5e a1 bc 70 9c e2 bd 69 17 80 be
       0.24075267 -0.019698344 -0.11064994 -0.2501786
000140 a9 ba 81 3d c3 2f 92 3e bb a7 c9 bc 40 84 27 bf
       0.06334431 0.28552064 -0.024616113 -0.6543617
000150 85 08 0a ba 8d 19 a4 3d 6e a3 5f bc 7d 62 68 3c
       -0.0005265552 0.08012686 -0.0136498045 0.014183638
000160 14 59 d7 3c ad 13 24 be 11 46 1d 3e 39 e6 62 3e
       0.026287593 -0.1602313 0.1535876 0.22158135
000170 22 a2 f4 3d 4f 98 6b be 23 32 dd bd 3d d8 64 3d
       0.11944987 -0.2300732 -0.108005784 0.055870283
000180 a6 b7 22 3e 7e 81 a5 bc 75 23 2d bd 78 54 5a be
       0.15890369 -0.020203348 -0.042270143 -0.21321285
000190 0a 83 a2 3e 73 1c 48 3e f2 60 b2 bd 76 27 15 bf
       0.317406 0.19542103 -0.08709897 -0.5826334
0001a0 28 4a 6d be 3c f2 28 3b c4 a9 ab 3c b6 0c 59 be
       -0.2317282 0.0025779149 0.020954974 -0.21196255
0001b0 8a 5d c6 be 20 1d ed 3b cb 91 fa bb 00 0a ac 3e
       -0.3874324 0.007236138 -0.0076467744 0.3360138
0001c0 2b fc 57 bd d5 dc d6 bd 36 92 a9 3b 4f 9c 29 bf
       -0.05273072 -0.10491339 0.0051749004 -0.66254133
0001d0 db b9 08 be 07 5b 60 bc 45 c2 0a 3e ff c8 2c 3e
       -0.13352148 -0.013693578 0.1355067 0.16873549
0001e0 83 ff 7a 3e 30 fb 0b 3d 4b c4 8b 3d e2 34 1c 3d
       0.24511532 0.034175098 0.06824549 0.03813637
0001f0 7f 0c 31 be ca 74 0d be 04 3e 90 bc 3c 0f 6d bd
       -0.17289923 -0.13814083 -0.017607696 -0.057875857
000200 87 5c 84 bd 89 3f b3 bd 2b 25 c5 be 66 e1 ef 3d
       -0.06462961 -0.08752353 -0.3850492 0.11712913
000210 72 f5 9f bd 1f cd 45 3d 3b e5 2e 3d 7e 2b df bc
       -0.07810487 0.04829132 0.04269908 -0.027242418
000220 ab b0 0e be 45 e9 00 3e f1 4e 43 3d b4 fa f1 3d
       -0.13934581 0.12588985 0.047682706 0.11815396
000230 5c 90 b4 3e 09 e1 01 3e 5b bb 23 3e 07 6f 0c 3c
       0.35266387 0.126835 0.15989439 0.008571393
000240 79 71 80 bd b0 ac 19 be 82 8e 19 3c 0d 08 13 bc
       -0.06271643 -0.15007281 0.009372355 -0.008974087
000250 f2 95 5d 3c 67 ee 95 be f3 8d c8 bd 82 72 6f be
       0.013524519 -0.2928345 -0.097927 -0.23383525
000260 9b 8e da bd 43 d9 31 bd 39 b3 7f 3e c9 85 38 be
       -0.10671731 -0.043420088 0.24970712 -0.18019785
000270 97 b0 89 3d d0 d1 dd bb 89 d2 f5 bd 29 90 67 bd
       0.06723135 -0.0067693964 -0.12003047 -0.056533966
000280 1f a3 b9 3d 9d cd 53 bd dd a6 da be bf 3b a7 bd
       0.09064316 -0.05170976 -0.42705432 -0.081656925
000290 cf f4 d2 bd 90 78 98 3b a7 dd da bd d3 b6 fc bd
       -0.103006 0.004653044 -0.10686808 -0.123395585
0002a0 ac ed 59 3d b7 36 aa be 06 ba c9 3c d9 32 43 bc
       0.053205177 -0.3324487 0.024624836 -0.0119139785
0002b0 1d 85 14 3e 6b e2 e7 bc 0a 90 d7 bd ba 46 14 3e
       0.14503904 -0.028306207 -0.1052552 0.14480105
0002c0 d1 03 8c bd 5e dd a5 be 02 dd 4b 3e 30 53 63 be
       -0.068366654 -0.32395452 0.19908527 -0.22199702
0002d0 cc 2c 1e be 9e 54 66 3e 3d 28 61 3e 0c da b4 bb
       -0.15446776 0.22493216 0.21988006 -0.0055191573
0002e0 c3 71 35 3c 64 82 d8 bb da a7 a4 bc 5b e4 16 bd
       0.011074486 -0.0066073406 -0.02009957 -0.03683887
0002f0 d9 86 a3 bc 02 a9 f4 3c e9 be 67 3e c2 dc c2 3d
       -0.019961761 0.029865745 0.2263142 0.095147625
000300 b0 01 8a be 01 54 8b be b0 83 77 bf 86 48 0a bd
       -0.26954412 -0.27212527 -0.96685314 -0.03376057
000310 32 f9 cd bd b0 3c 91 bc 04 6a 25 be 94 31 d0 bd
       -0.10057296 -0.017729133 -0.16153723 -0.10165706
000320 02 5d 00 3c fb 1e 82 3d 06 d0 0a be 19 97 8f bd
       0.007834675 0.06353565 -0.13555917 -0.070112415
000330 5d 08 d7 bd a2 67 3e 3e f2 1d 18 bd 94 59 04 3d
       -0.10499642 0.1859422 -0.037137933 0.03231199
000340 84 cb c0 3d fc 63 eb bb f7 31 9a bc 9d 25 3a 3c
       0.094138175 -0.00718355 -0.018822653 0.011361507
000350 e6 95 a5 bc c9 55 c4 3d fa 9d 1c 3e ba cc 7b 3d
       -0.020213079 0.09586675 0.15294638 0.06147454
000360 26 7d 3a be 57 3b 1c bd a7 42 82 3d f7 01 df bd
       -0.18211803 -0.03814253 0.06360369 -0.10889047
000370 85 de 39 3d 7a 57 7f 3d d7 10 16 be 88 35 ab bd
       0.045378227 0.062339284 -0.14654861 -0.0835982
000380 ad dc 8c 3d 83 ea 0d 3d 04 ac 69 38 8c e3 11 be
       0.06878028 0.034647476 5.571173e-05 -0.14246958
000390 f2 8e aa 3a 1d 9f 07 be 21 20 09 3e 7e c8 be 3e
       0.0013012572 -0.1324429 0.13391162 0.37262338
0003a0 30 ee 2f 3d af 92 0f 3e 63 90 9e 3c 91 21 45 bd
       0.042951763 0.14020799 0.019355958 -0.048127715
0003b0 4a a4 83 3d 62 5d 1a be 95 3d 29 be 4f e2 7b 3e
       0.0642782 -0.15074685 -0.16527398 0.24598049
0003c0 16 b2 15 bd 07 4b 46 3e 73 f5 1a 3d 3d cd 9c bd
       -0.03654679 0.19364558 0.037831735 -0.076563336
0003d0 a7 54 d1 bc 94 e5 58 be 94 70 25 3e f2 bd 29 bd
       -0.02555306 -0.21181327 0.16156226 -0.04144091
0003e0 67 73 26 3c 98 24 4d be d6 67 ab bd d3 38 53 3e
       0.01015935 -0.2003349 -0.083694145 0.20627145
0003f0 2e fc 7a 3c 4a 55 9e bd b1 57 fd bb 4b 6c 8a 3d
       0.015318913 -0.07731111 -0.007731401 0.067589365

fc1.bias f4 [64]
000000 5e 49 1d 3e 7a 15 ff bc f3 e1 92 bd 0f f2 87 bd
       0.15360019 -0.03113817 -0.07172003 -0.06637966
000010 27 d1 2f 3e ba 84 08 bd 37 65 b6 bd db 70 2e 3d
       0.17169629 -0.033329703 -0.08906024 0.042588096
000020 78 66 07 bd 41 ff 14 be 74 33 4f 3e 8c 84 2f 3e
       -0.033056706 -0.14550497 0.20234472 0.17140406
000030 0a 86 08 3e 13 81 a9 3d 4c 09 10 bc 69 c0 0f bd
       0.13332382 0.08276572 -0.008791279 -0.035095606
000040 31 34 ad 3d a2 eb b9 3c b9 34 89 3d 86 fd 45 be
       0.0845722 0.022695366 0.06699509 -0.19334993
000050 90 7a f5 bd 56 a9 e3 3d af c2 9b 3c 85 7f 04 be
       -0.119862676 0.11116283 0.01901373 -0.1293927
000060 3f 7d 12 be 22 59 b6 3d 9c 0d 96 bc e6 5f 2e be
       -0.1430559 0.089037195 -0.018317036 -0.1702877
000070 b5 fb 41 3e 93 a8 08 3e da cb 8c bd f5 fb 3c be
       0.18943675 0.13345556 -0.06874819 -0.18455489
000080 c2 52 1b 3e 05 19 53 bc 49 55 04 be fb cb 91 3c
       0.15168288 -0.012884383 -0.12923159 0.01779746
000090 fd aa a3 bd 78 a8 27 3c c1 f0 66 3b 79 8f 04 be
       -0.07991598 0.010233037 0.0035238715 -0.12945355
0000a0 28 ca e6 bd 1b c9 36 bd 4d ed d1 bd 86 d6 52 3e
       -0.11269027 -0.044625383 -0.1025034 0.20589647
0000b0 da 63 7c b9 9e 45 17 be 0b 36 ca 3c 1c 59 49 be
       -0.0002406979 -0.1477265 0.024683973 -0.19662899
0000c0 5a e4 24 be df ce cc 3d 67 3c 1e be c5 9d ba 3d
       -0.16102734 0.10000395 -0.15452729 0.091121234
0000d0 cd 67 ae bc 82 eb 90 bc 91 5a 39 be bd 5c a7 3c
       -0.02128973 -0.017690424 -0.18100955 0.020429963
0000e0 d4 99 f0 3d e8 7a 97 bd da f2 a9 bd b7 0f ec bc
       0.117480904 -0.073964894 -0.082982734 -0.028816087
0000f0 10 04 72 3c dd 4e 82 3b 83 91 b3 39 8b eb e3 bb
       0.014771476 0.0039766864 0.00034249955 -0.006955569

fc2.weight f4 [64, 64]
000000 71 21 89 be fb ec c8 3d 53 de 0e 3e 7b e3 ba 3e
       -0.26783326 0.098108254 0.13951997 0.3650168
000010 d5 c2 84 3e 98 c4 91 be 92 7d c2 be 4d b4 b2 be
       0.25929895 -0.28470302 -0.37986428 -0.34903184
000020 9d 4e ed bb fc e2 2a 3e c2 cf 92 3d e8 ec ff bb
       -0.0072420374 0.1668815 0.07168533 -0.007810224
000030 b3 a3 d5 bd 58 f2 9d be 28 86 10 3e 06 f0 89 3d
       -0.10431614 -0.30848956 0.14113677 0.06735234
000040 c4 ab 3f be bd 7e ad be d6 30 6d 3e 7f 0a 8f be
       -0.18717867 -0.33885756 0.2316316 -0.27937695
000050 ed f4 c3 3c bb a0 f0 bd e5 14 1c 3e 41 8b 64 be
       0.0239205 -0.11749407 0.15242346 -0.22318746
000060 8c f1 ea bc f3 6c 3a be 36 f0 75 3e 6a fc 80 bd
       -0.028679632 -0.18205623 0.24017414 -0.06298144
000070 c6 c6 67 be 74 2f 82 3c 7b 11 90 3e b5 43 8d be
       -0.2263442 0.015891768 0.28138337 -0.2759072
000080 16 02 b3 bd 03 5f d1 bd a1 dd bb be 2f 4b b2 bd
       -0.08740632 -0.102232 -0.36692527 -0.087057464
000090 5c c3 9e be 35 b5 9d 3e 45 e4 f2 3d e1 71 88 be
       -0.31008422 0.30802312 0.11859945 -0.26649383
0000a0 25 57 08 bd 7c 80 1a be 05 87 8b be b1 9e 4d bc
       -0.033286233 -0.15088075 -0.2725145 -0.012550042
0000b0 dd cf 0e 3e 0a 60 cc be cb c8 e3 be 9f ad 60 3e
       0.13946481 -0.39917022 -0.4448913 0.21941231
0000c0 47 b5 e1 bd c1 01 9c be 4b 9c ba bd b1 db 20 be
       -0.11020904 -0.30470088 -0.09111842 -0.15708806
0000d0 78 86 ad be 5a 30 40 be 3b d2 97 bd 51 e0 e1 be
       -0.33891654 -0.18768445 -0.07413145 -0.44116452
0000e0 41 b8 8a bc 16 d5 01 3e cf 97 08 be 0e 75 42 3d
       -0.016933562 0.12678942 -0.1333916 0.047474913
0000f0 69 1b 0f 3d 7a ea 27 3e b6 ac 66 bd 00 20 2b 3e
       0.03493825 0.1639804 -0.056317054 0.16711426
000100 10 0b 3f bd 54 0e c5 3d 54 77 39 be 56 0e 0d bd
       -0.04664141 0.096218735 -0.18111926 -0.0344375
000110 28 cb 86 3d ed 09 e4 3d 06 9d b0 be 49 7a 07 be
       0.06581718 0.11134706 -0.344948 -0.13230242
000120 57 c7 e3 bd 19 06 a1 be 4d c7 2a bd 43 66 80 3e
       -0.111220054 -0.31449965 -0.041693974 0.2507802
000130 1f 6f b3 bc ba 4b 21 3c 35 90 b3 bd 0f 49 fe 3c
       -0.021903573 0.009844715 -0.0876774 0.031040696
000140 4f a9 15 3e 62 b3 57 bd c0 f5 bd bd be 12 14 be
       0.14615367 -0.052661307 -0.09275389 -0.14460275
000150 fe af 5c 3d f6 2b 5c be be ec f3 3d e0 b8 2c be
       0.053878777 -0.21501145 0.11910389 -0.16867399
000160 8e 60 b8 3d 7b ba 91 3d 81 52 0a be e3 cc 24 be
       0.09002791 0.071156465 -0.13508035 -0.16093783
000170 e0 5d 56 3e 54 78 ea 3c 57 8c bd 3e d7 8f f1 bd
       0.20934248 0.02862183 0.37021133 -0.117950134
000180 17 c6 0b be f6 34 0b 3e 0a fb 9e bb 02 49 99 be
       -0.13649784 0.13594422 -0.0048517035 -0.29938513
000190 20 d3 86 bc 64 b1 2e 3c d8 06 2e be 79 05 f7 bd
       -0.016458094 0.01066241 -0.16994798 -0.12061591
0001a0 e9 98 f3 bd e5 6f 15 3e d7 da e6 bc 29 05 af bd
       -0.118944 0.14593466 -0.028180523 -0.08545906
0001b0 13 f0 00 be 62 e6 b5 be 8b e2 e4 bd 76 52 f8 3c
       -0.12591581 -0.3552733 -0.11176022 0.030312758
0001c0 7c 68 d8 bd 5b 9c 0d be 15 d0 07 3c eb 30 9b 3d
       -0.10566804 -0.13829176 0.008289357 0.0757769
0001d0 7e 30 e9 bd 1e 01 fc 39 7b 85 3a bb 77 48 50 bd
       -0.11386202 0.00048066018 -0.0028460908 -0.050850358
0001e0 fe d0 bc bd 86 82 1f be a0 bb 95 3d 36 98 83 be
       -0.092195496 -0.15577134 0.07311177 -0.25702065
0001f0 27 47 ea bd 41 2f b6 ba ac 6e 66 be 69 98 e0 bd
       -0.114393525 -0.0013899581 -0.22503155 -0.1096657
000200 f1 33 a9 3d 99 df 85 bd 69 7d 8e be d8 a8 1e 3d
       0.0826186 -0.065367885 -0.27830055 0.03873524
000210 cf 2e d2 38 a5 6d c0 3d 2c 26 10 be 52 a9 86 3d
       0.00010022299 0.09395913 -0.14077061 0.06575264
000220 73 25 d3 3d 77 8d 8a bb f1 25 e7 3d 5e 74 21 3e
       0.10309877 -0.0042282897 0.112865336 0.15767047
000230 9f 58 3d bd d8 e1 3d 3e b6 cd 9f bd 7e 97 dc 3c
       -0.046227094 0.18543184 -0.07802908 0.026927706
000240 57 6b 38 bd 53 98 af 3e e8 f6 47 ba d4 05 83 be
       -0.045024242 0.34295902 -0.00076280395 -0.25590384
000250 83 4d b5 bd 94 82 f1 3c de 62 b1 3d 4c 4a b6 3d
       -0.08852675 0.02948121 0.086614355 0.0890089
000260 00 dd 71 3d a6 ec 41 3e c1 43 02 bd 1a d1 75 bb
       0.059048653 0.1893793 -0.031802896 -0.0037508667
000270 a2 8b 1e 3e c0 de 99 3d cf 13 13 3e 91 92 7b bd
       0.15482953 0.07513189 0.14363025 -0.061419073
000280 22 3f af bd f9 c9 1f bd 88 2b 84 be 8b 18 bf 3d
       -0.085569635 -0.039010976 -0.25814462 0.09330853
000290 0f 9d d5 3c 0c 74 c0 3d a5 a0 98 3e a6 c3 a8 3e
       0.026075868 0.09397134 0.29810062 0.32961768
0002a0 3a 10 6a 3e 1f 82 92 bd 39 51 d7 bd 5a 89 03 be
       0.22857752 -0.07153725 -0.10513539 -0.12845364
0002b0 2d a6 c8 3d 85 90 57 bd 82 10 b9 3d e8 ae 13 be
       0.097973205 -0.05262806 0.09036352 -0.1442219
0002c0 4a d6 5f 3b 7d a6 08 bd c6 a0 f9 bd 05 bf ca 3d
       0.0034154826 -0.0333619 -0.12188868 0.09899715
0002d0 d8 dd e8 bd 1d 86 b7 bb 5f d6 3c be 5e e3 1d 3d
       -0.11370438 -0.0056007043 -0.18441151 0.038546912
0002e0 5e b5 78 bc fa fa 89 bd 11 ba 87 3e 3e 4e 9f 3d
       -0.01517996 -0.06737323 0.26509145 0.077785954
0002f0 9c 74 80 bc a3 fc b9 3d b0 09 26 3b 0b 52 ad bd
       -0.015680604 0.0908139 0.0025335364 -0.08462914
000300 9d 1c 16 3d ac df 10 be 8c f2 71 3e 69 32 33 bc
       0.03664838 -0.14147824 0.2362768 -0.010937312
000310 cf 43 3e bb f8 4c 4a 3c 0b 9e 04 be 37 fa 73 be
       -0.0029032116 0.012347452 -0.12950914 -0.23825918
000320 e1 8f 58 bd 7e 66 35 3d e7 df fa bc dd aa 34 bd
       -0.05287159 0.044287197 -0.030624343 -0.04410826
000330 2e 4c 38 3d 94 ec 47 3e 65 57 16 3d 74 f2 86 be
       0.044994526 0.19523841 0.03670444 -0.26356852
000340 16 4a 62 bd a9 a5 72 3d 0d 7d 9c bc e3 95 f1 bd
       -0.055246435 0.059240017 -0.019102598 -0.11796167
000350 c0 e5 11 3d 40 ca 0b 3c 96 20 49 be c4 d0 02 3c
       0.035619497 0.008532107 -0.19641337 0.007984344
000360 ed ca 11 3e 55 d3 aa 3c b5 f4 05 3e 41 76 41 bd
       0.14237566 0.020852724 0.1308163 -0.047231916
000370 24 54 d0 ba 0d 3a c3 bc c7 e4 6a 3d bc c2 93 bd
       -0.0015894216 -0.023831392 0.057347085 -0.07214877
000380 43 ef 19 bd 6a e2 20 3d 5c af 97 3d 9a 77 cc bd
       -0.037581693 0.039278425 0.07406494 -0.0998375
000390 a3 a1 31 be 66 25 36 3d 3a 2f a1 3e 52 55 02 be
       -0.17346816 0.04446926 0.31481344 -0.1272786
0003a0 cd 49 3c 3e d8 e9 35 3e e5 2c 0f bd d4 4a f0 bd
       0.18387528 0.17764986 -0.034954924 -0.11733022
0003b0 24 42 06 bd e8 4b 3e 3d 71 98 0e 3c 96 41 24 bd
       -0.03277792 0.04645911 0.008703337 -0.04010161
0003c0 30 59 bb 3d a5 01 45 bd 9b 3a 10 be fa ac 4e 3d
       0.091478705 -0.04809727 -0.14084856 0.050457932
0003d0 6d ea 9a 3d f6 fc fa bd d0 26 1f be 56 21 3b 3c
       0.075642444 -0.1225528 -0.1554215 0.011421522
0003e0 90 23 f6 bd 60 92 a3 bd 95 a5 b6 3c 46 14 4f 3d
       -0.12018502 -0.07986903 0.022295753 0.050556444
0003f0 76 5f 17 be 43 fd 41 bb 55 17 74 3c 4a e4 48 be
       -0.14782509 -0.0029600419 0.014898141 -0.19618335

fc2.bias f4 [64]
000000 e0 a7 bc 3c 71 96 ad bd 1d fd b9 3d d4 b5 62 3c
       0.023029268 -0.0847596 0.09081481 0.0138372965
000010 f6 3a ea 3d 3c 5d 12 be 53 3a a3 bd 78 90 6c 3d
       0.11437027 -0.14293379 -0.07970109 0.057754964
000020 83 d7 be 3d 99 5c 91 3e 84 cb 79 bd 90 e5 53 3e
       0.09318449 0.2839096 -0.060985103 0.2069304
000030 92 58 82 3d 09 45 7f bd 2b 1a bc bd 53 e2 6b 3c
       0.0636455 -0.062321696 -0.09184679 0.014397222
000040 3b 67 8a 3c 29 cf 49 bd 80 40 cb bd 90 e2 7d 3d
       0.016894927 -0.04926983 -0.09924412 0.061983645
000050 24 d1 a7 3d 7d a7 90 3e a0 a0 05 be 10 c4 fc bd
       0.08194187 0.28252783 -0.13049555 -0.123420835
000060 05 cb 0a bd b6 57 c1 bd b7 33 d0 3c 83 f6 d1 bc
       -0.03388502 -0.09440558 0.025415285 -0.025630241
000070 4f 4c 2a 3d 2e 9a 96 3d c0 a4 27 3d 5b 16 87 bd
       0.04157668 0.07353626 0.040928602 -0.06596061
000080 29 c2 87 bd c5 1a fa 3d 37 d6 e3 3d c2 fd 32 bc
       -0.0662883 0.12212137 0.111248426 -0.010924758
000090 dd e8 8b bd 5e 1f d8 bd 3a b8 0f 3e 8a 27 2c bc
       -0.068315245 -0.10552858 0.1403512 -0.010507474
0000a0 7d 83 39 bd 63 aa b5 3e 57 a2 88 3e bb 25 90 bd
       -0.045291413 0.35481557 0.26686355 -0.070384465
0000b0 fa 94 cd ba ea 6f 05 3c ae a8 1b 3e be ad 4c be
       -0.0015684657 0.008144358 0.15201065 -0.19988152
0000c0 46 2c 36 3d f6 a7 af bd 53 c3 c1 bd 12 e9 38 3e
       0.044475816 -0.08576958 -0.09461083 0.1805766
0000d0 d4 55 ba bd aa cf 76 bd 28 77 8c 3d 63 41 ca bd
       -0.09098402 -0.060256638 0.06858665 -0.09875753
0000e0 ea 9e 09 be bb 82 15 be 13 3e 27 bd fd 37 06 bd
       -0.13439527 -0.14600651 -0.040830683 -0.03276824
0000f0 e9 4d 5f 3d e2 32 07 3e 5a e3 dc 3d 04 d5 c0 bd
       0.05451766 0.13203004 0.10785551 -0.094156295

fc3.weight f4 [4, 64]
000000 62 aa 11 bf 5f 16 9e 3d e1 f9 0b 3e e2 36 3e be
       -0.5690061 0.07719111 0.1366954 -0.18575624
000010 a0 59 1f 3d 1a 9d 8b 3e f5 65 7e 3d dc dd 42 be
       0.038903832 0.27268296 0.062108953 -0.19029945
000020 91 51 d0 3d 37 af a0 3d d5 94 93 bd 2b 6e 60 3e
       0.101718076 0.078459196 -0.07206122 0.21917026
000030 f0 2e 37 3d 38 62 9d be 30 50 1c bd df 3f 35 be
       0.044722497 -0.30738997 -0.03816241 -0.17700146
000040 27 fe a5 3d 3a e5 35 3e 7c 1c b7 be ec bc 9c 3d
       0.08105116 0.17763224 -0.3576392 0.076532215
000050 aa ed c2 3d 49 61 c9 3d ae 46 61 3c 1c c0 15 bd
       0.09517987 0.09833009 0.0137497615 -0.036560163
000060 6a ff d6 bd e4 65 87 bd 3d 9e 5a be 0f 11 f8 3c
       -0.10497935 -0.06611231 -0.21349426 0.030281572
000070 06 c0 d6 3e ff 39 21 3d f2 aa da be 7f ba 49 3e
       0.41943377 0.03936195 -0.42708546 0.19700049
000080 ac 7b 0c 3e b7 1a b3 3d 0b 74 c1 3d 78 33 81 bc
       0.13719052 0.0874533 0.094459616 -0.015771613
000090 0b f1 2a 3e a5 a9 13 be 1b 4f 3d 3e 3d 68 97 3e
       0.16693513 -0.14420183 0.18487208 0.29571715
0000a0 4a 43 d4 3e 52 4b e3 3d 2d cc d0 3d 49 09 68 bc
       0.41457587 0.110983506 0.101951934 -0.01416237
0000b0 f8 29 8f bd 43 d4 bc 3c 93 97 0e 3e 1d f8 97 3d
       -0.06990427 0.023050433 0.13925008 0.07420371
0000c0 5e a2 41 bd 66 98 85 3e 71 f0 82 be 23 12 69 3d
       -0.047273986 0.26092833 -0.25574067 0.056902062
0000d0 c3 7f 17 3d 72 ef a9 bd 9d 1a 8b 3d 52 a1 21 3e
       0.036987077 -0.08297624 0.067921855 0.15784195
0000e0 fa 02 6b be 51 96 cc bd ae e2 64 3d 25 08 12 3d
       -0.22950354 -0.09989608 0.05588024 0.0356523
0000f0 ed 0c 89 3d e3 71 27 3e 29 23 46 3e 7e 58 bc 3d
       0.066919185 0.16352038 0.1934935 0.09196566
000100 23 d5 9c 3e 2b c2 16 3e 83 4e 20 3e ef 98 f5 3d
       0.3063136 0.14722507 0.1565495 0.119920604
000110 54 8a 01 3e 35 dc ab 3e 63 3a 82 bc 0c 53 f9 bc
       0.12650424 0.33566442 -0.015896982 -0.030435108
000120 69 87 f6 bc 7e b0 b6 3d 60 c8 9e bd 66 04 0d 3e
       -0.030093865 0.08920382 -0.07753062 0.13771209
000130 e4 1c b1 3e 58 37 80 3e 60 de a5 bc 51 e3 2b 3c
       0.34592354 0.25042224 -0.020247638 0.010491208
000140 0e a0 8d 3a b9 91 2f 3e e9 ba 37 be a1 89 00 3e
       0.0010805146 0.17145433 -0.17942394 0.12552501
000150 b1 ea 30 3e 53 16 fc 3d 11 02 95 bd 54 56 d6 3d
       0.17277028 0.123089455 -0.07275785 0.104656845
000160 55 3f b9 3d 34 3d 60 bd 51 07 c7 3b 4a ac 49 be
       0.09045283 -0.054745868 0.00607387 -0.1969463
000170 6e 83 21 3e 24 61 c7 3d bd 95 0b 3d 48 c8 65 3e
       0.15772793 0.09735325 0.03407835 0.22439682
000180 dd 80 c6 3d 5a 58 72 ba c2 ff 07 3e 95 62 a2 be
       0.096925475 -0.0009244733 0.13281158 -0.31715837
000190 b5 5f bd 3d d7 50 32 be b6 46 63 3e ea af 59 3e
       0.0924677 -0.1741365 0.22194943 0.21258512
0001a0 b6 47 af 3e 69 9f 15 3e 6c 8b 86 3c 47 47 4f bc
       0.342344 0.14611591 0.016423903 -0.012651271
0001b0 10 3b 01 3e 05 e4 93 bd 25 6a 13 3e 1e c0 a1 bc
       0.12620187 -0.07221226 0.1439596 -0.019744929
0001c0 e4 d9 4a 3e ff 82 27 3e 52 b6 a6 be 20 fc f8 bb
       0.19809681 0.16358565 -0.32560974 -0.007598415
0001d0 33 49 5f 3d 2a a2 bc 3c 64 31 51 3d c6 ee 83 3e
       0.054513168 0.023026545 0.051072493 0.25768107
0001e0 03 98 f2 bd 27 b1 aa be e4 7b 6d 3e b2 9c 86 bd
       -0.118454 -0.33338282 0.23191792 -0.06572856
0001f0 64 01 24 3c b9 27 95 bc 23 b9 8a be 63 04 3a 3e
       0.010010097 -0.018207418 -0.27094373 0.18165736
000200 84 93 46 bc eb e0 35 3e 8d 6c 85 3e 2f 6e 54 be
       -0.012120131 0.1776158 0.2605938 -0.20745157
000210 87 54 44 3e e6 e6 68 bd 8e 6f 6f 3c 12 b3 84 bd
       0.1917287 -0.056860827 0.014613999 -0.064794675
000220 02 bc 83 3d 36 90 d4 3d a6 81 04 be 3b 5e 81 3e
       0.06432344 0.103790686 -0.12940082 0.25267205
000230 96 8d 99 3d 5f 95 f3 be 66 5c 98 bd 65 dd 15 3d
       0.074977085 -0.475749 -0.074394986 0.03658809
000240 dc 1c 4d 3e 68 96 5b be 79 85 9c be 79 d4 a8 3d
       0.2003054 -0.21444094 -0.30570582 0.08243651
000250 7b 97 84 3c ee 63 44 3e 91 4b 12 be 59 b7 97 3c
       0.016185513 0.19178745 -0.14286639 0.018520044
000260 d7 a0 bb 3d 54 1f 7d be 68 62 37 bd 97 61 8a be
       0.09161537 -0.24718982 -0.044771582 -0.2702758
000270 2a d3 9e 3e bf f7 5c 3e 5b 12 2f be 45 76 59 bc
       0.3102048 0.21578883 -0.17096846 -0.013272827
000280 42 8e 8b be 5b f7 55 bc da d4 c5 3d a6 b5 04 be
       -0.27256972 -0.013059462 0.09659739 -0.12959918
000290 d9 66 ce 3d 29 ce fe bd 6b 69 fa 3c b2 20 44 3e
       0.100782104 -0.12441666 0.030567845 0.19153097
0002a0 df b9 95 3e 85 4d 0a 3e 3a 60 1e 3e 93 60 a9 3c
       0.2924337 0.13506134 0.15466395 0.020675933
0002b0 5c ad 56 3e 7f 85 ba 3d 4e db 05 3e cb e4 e9 3d
       0.20964569 0.091074936 0.1307194 0.11420592
0002c0 f9 1c 53 3e 27 67 e7 3d d2 a8 b0 be a0 02 5c 3e
       0.20616521 0.112989716 -0.345038 0.21485376
0002d0 86 78 52 3e 3e a8 2c 3e 1c 1e d9 3d 8a b9 a5 bd
       0.20553789 0.16861054 0.10601446 -0.080920294
0002e0 20 1d 56 be c8 fd 8a be 54 19 d0 3d 92 7a 7e 3d
       -0.20909548 -0.27146745 0.10161081 0.06212861
0002f0 47 23 5d 3d 53 fc 4c 3d 8e ec d0 bd 31 35 54 3e
       0.05398872 0.050045323 -0.10201369 0.20723416
000300 2a 8b 39 be a3 fa 78 3e 61 b5 c0 3d 8c d6 27 3e
       -0.18119493 0.2431436 0.09409595 0.16390437
000310 a9 6e fb 3b c4 04 ca 3e e3 03 ba be 45 3e 3a 3c
       0.007673104 0.3945676 -0.3633109 0.011367385
000320 b7 e5 8d 3d f3 26 0e 3e 52 ab 21 3e e4 6c cb 3b
       0.0692858 0.13882045 0.1578801 0.006208049
000330 2a 18 de 3e 5d c6 08 3e 59 8d e7 3c 69 d1 fb bd
       0.4337781 0.1335692 0.028265642 -0.12295801
000340 f9 42 e0 3e 64 73 47 3d e4 fb 45 3e 26 25 86 3e
       0.43801096 0.04869403 0.1933437 0.26200217
000350 40 a0 a9 bd 18 4d 40 3e 51 b6 41 be 01 f0 7f 3d
       -0.082825184 0.18779409 -0.18917204 0.062484745
000360 b0 c0 a2 3d bb 54 52 bd 1e af 5f bd ae 8a 58 3e
       0.079469085 -0.051350337 -0.054610364 0.21146652
000370 90 f7 89 3e 2e 65 15 be 27 96 88 be fe a2 1e 3e
       0.26946688 -0.14589378 -0.26677057 0.15491864
000380 1a f9 0b be 77 8e 08 3e dd 98 73 3c 9b ea dd bd
       -0.13669243 0.13335596 0.014867988 -0.10835763
000390 1c 51 5c be 1b 1f 8f bd 51 c9 48 3e 78 89 87 3e
       -0.21515316 -0.06988355 0.19608046 0.26472068
0003a0 f4 e5 3c 3d 65 0c 42 3e fe f3 16 3e cc 4f 4f be
       0.046117738 0.1895004 0.14741513 -0.20245284
0003b0 b2 ec 70 3e c3 7d bd bd 0d e2 de 3d 35 e7 f9 3c
       0.23527792 -0.09252503 0.108829595 0.030505756
0003c0 3e ae 81 bd 90 f1 4e 3e 45 83 3f 3d fa 68 1e 3e
       -0.06332062 0.20209336 0.046756048 0.15469733
0003d0 1a 1f 56 3e 07 16 80 be c6 a6 93 3d 53 73 f5 3e
       0.20910302 -0.25016806 0.07209544 0.47939548
0003e0 26 10 41 be 1c 60 8a be bf 85 dc bd ae 0d ac bd
       -0.18853816 -0.2702645 -0.107676975 -0.08401047
0003f0 1b 23 a8 be ac ad 15 3c 9f 0a e4 bc 3b 6a 6f bd
       -0.32839283 0.009135645 -0.027837096 -0.05845092

fc3.bias f4 [4]
000000 d4 7f 35 3e 21 6b 22 3e 6d ef b5 3d a7 19 a5 3d
       0.17724544 0.15861179 0.088835575 0.080615334

state_value.weight f4 [1, 64]
000000 28 04 5f bd 64 aa bc bd 80 9e dc 3b e4 21 c2 bd
       -0.054447323 -0.09212187 0.006732762 -0.094791204
000010 20 e5 bc bb d0 21 8c bc e2 3d c6 bd ec 27 67 bd
       -0.0057646185 -0.017105967 -0.09679772 -0.056434557
000020 d8 cc 5f 3d 00 c8 12 bd 32 f2 e1 bd 8e 45 d0 3d
       0.054638714 -0.035835266 -0.11032523 0.101695165
000030 0c a1 1f bd 10 d5 76 3c 40 de cd 3d e8 f0 7e 3d
       -0.038971946 0.0150654465 0.100521564 0.062241465
000040 c6 eb ce bd 3e 1f e2 3d c4 b8 0e bd 2c 9b 02 3d
       -0.10103564 0.11041115 -0.034844175 0.031886265
000050 ac ef 63 3d 7c b6 32 3d 24 fa ae 3d 54 0e 67 bd
       0.05564849 0.043631062 0.08543804 -0.05641015
000060 cc 40 be 3d ac bb a2 3d 72 85 e0 bd 30 e4 3e bd
       0.09289703 0.07945952 -0.10962953 -0.046604335
000070 c6 3b dd 3d 84 02 be bd da a3 e7 bd 8a 1a 9e 3d
       0.108024165 -0.092778236 -0.11310549 0.07719906
000080 c4 6a 34 3d 00 8c 60 3c d6 23 cc 3d 20 b0 c9 3b
       0.044047132 0.013705254 0.09967773 0.006155029
000090 64 9e f9 3d 96 e2 a9 bd 88 03 dc bd 30 ae de bc
       0.12188414 -0.08295171 -0.10742861 -0.027182668
0000a0 9c df f8 3d 18 e1 da bd e4 3a 53 3d 48 1a 03 3d
       0.12152025 -0.106874645 0.051569834 0.032007486
0000b0 5c cd 58 bd f4 f1 d1 bd 90 63 56 3d ac 02 40 3d
       -0.05293022 -0.10251227 0.052341044 0.046877548
0000c0 c0 43 56 bb 80 4e 4a 3d 96 fe 8b 3d 52 4e b4 bd
       -0.003269419 0.04939127 0.06835668 -0.08804001
0000d0 0a 4b dd bd 40 47 aa bc 70 5e 93 bc e0 a9 44 bd
       -0.10805328 -0.020785928 -0.017989367 -0.048013568
0000e0 d4 c1 06 3d 5a 73 c4 bd 04 c2 f8 3d 70 10 ce bc
       0.032899693 -0.09592314 0.121463805 -0.025154322
0000f0 c8 ff 8e bd d0 9e a3 bc 10 b6 ca bd a4 84 dd bd
       -0.0698238 -0.019973189 -0.09898007 -0.10816315
